{"modelTopology":{"class_name":"Sequential","config":[{"class_name":"Dense","config":{"units":8,"activation":"sigmoid","use_bias":true,"kernel_initializer":{"class_name":"VarianceScaling","config":{"scale":1,"mode":"fan_avg","distribution":"normal","seed":null}},"bias_initializer":{"class_name":"Zeros","config":{}},"kernel_regularizer":null,"bias_regularizer":null,"activity_regularizer":null,"kernel_constraint":null,"bias_constraint":null,"name":"dense_Dense5457","trainable":true,"batch_input_shape":[null,5],"dtype":"float32"}},{"class_name":"Dense","config":{"units":2,"activation":"softmax","use_bias":true,"kernel_initializer":{"class_name":"VarianceScaling","config":{"scale":1,"mode":"fan_avg","distribution":"normal","seed":null}},"bias_initializer":{"class_name":"Zeros","config":{}},"kernel_regularizer":null,"bias_regularizer":null,"activity_regularizer":null,"kernel_constraint":null,"bias_constraint":null,"name":"dense_Dense5458","trainable":true}}],"keras_version":"tfjs-layers 1.0.4","backend":"tensor_flow.js"},"format":"layers-model","generatedBy":"TensorFlow.js tfjs-layers v1.0.4","convertedBy":null,"weightsManifest":[{"paths":["./bird-brain.weights.bin"],"weights":[{"name":"dense_Dense5457/kernel","shape":[5,8],"dtype":"float32"},{"name":"dense_Dense5457/bias","shape":[8],"dtype":"float32"},{"name":"dense_Dense5458/kernel","shape":[8,2],"dtype":"float32"},{"name":"dense_Dense5458/bias","shape":[2],"dtype":"float32"}]}]}